trained_model/120x6x6x1x4/trained_model.pth (torch, 491629 bytes, 80 tensors)

layers1.0.weight f4 [1, 1440]
00000000: 138f 01bc 8f49 f5bb a900 5abc a384 853c
00000010: 2726 a4bc 7a4f 8abc 6114 85bc 5f37 13bb
00000020: 85d8 563c f107 e9ba 65d8 713c 8804 07bc
00000030: 1948 59ba ab50 293c 736f 3f3c ebe1 133c
00000040: f1b3 59bb a10d adbc 9063 30bc 8b39 513c
00000050: 9ca4 0b3c 5e59 6cbc ae82 b83c e2c7 db3b
00000060: 9401 21bc 9a42 ebbb e256 e73b d25b 02bc
00000070: c8be 36bc d179 51bc 7d11 e83b 00f6 8bbc
00000080: c9d2 04bc 07b6 00bc 5f38 19bc 7eea 033c
00000090: 7dd3 a03b f2ad 433c b53f c4bb e98e 863c
000000a0: 928d 823c f354 dabc 7599 063c 5eb2 dbbc
000000b0: c7e9 fe3b 9c48 fcbb ccf0 a53c 4cbc 213c
000000c0: 3695 84bc dcd3 9a3a ca8f 433c 1827 2cbc
000000d0: f653 1f3c 9678 2d3c 41e3 aebc 3588 d3bb
000000e0: 7300 423c 0dbb a3bb cfbc fb3b d012 1d3c
000000f0: 5ea9 34ba e06c c53b 0bbe 1f3c 6a54 41bb
00000100: bb38 a13b a604 92ba ecdb 5f3c c015 cbba
00000110: 89ac 08bb 5b4a 33bb 788f 69bc 73bb 3038
00000120: c9c9 1cba e5c9 4bbc 1e8d 4cbc 661b d7bb
00000130: bbee a2ba 333f 933a 5221 38ba 6962 d5ba
00000140: 4adc 653c 4d56 3b3c 9b95 0cbc c934 b0bc
00000150: 8be2 2cbc 009b 013c b0c6 68bb a2a2 433a
00000160: 2cfb 923c 191e 943c 1382 ce3b 8af0 8bbb
00000170: b724 8b3b 9da2 05bb 8968 a63c 0950 04bc
00000180: fcda 81ba 70e4 d3bb dd3c 21bc fa40 1ebc
00000190: 942b 30bc 86e5 ad3c 0e3a 273b ad2f a23b
000001a0: 4704 a8bb 87e1 283b 2e5f 3a3c f46a ef3b
000001b0: a7d2 a5bb 35d3 e43a 566a 17ba 006c 71bb
000001c0: 79a6 763b 320c 2ebc ea65 ac3a 0ef3 763b
000001d0: c573 8bbb 02a4 493c 87bc 6bbc 22de 4f3c
000001e0: 1c90 533c d698 0d3c 9827 8d3a bd3d 7dbc
000001f0: 296e 51bb 6f37 293c 8707 afbb 4bc9 77bb
00000200: 8250 5a3b dda3 85bc 4e53 c23a b2bc b23b
00000210: 7761 bbbb c453 103c c94f 703b 3a50 203c
00000220: bba7 423b 09ca 65bc 97c5 f73b 6a59 df3c
00000230: c144 d8bb 4ef0 43bc 0319 ec3c 222d debb
00000240: eef1 03bb 90ad 9c3b bb13 dc3b 5b9d 083c
00000250: 2a32 c9bc dcf7 0bbc 7ee1 273a c090 903c
00000260: d890 ff3a 7361 1e3b 537b b4bb 8ff1 23bc
00000270: ed59 04bb f31c 3b3c ebe7 243c 3c60 b03c
00000280: af6b 423c 6b17 a33a 51d4 92bb 6f37 e9bb
00000290: 53ed ccbc 9d6c abbc b72f d5bb 107b 2fbb
000002a0: 5cc2 3c3a 2acd e5bb 70d1 8e3c 202e 8fba
000002b0: b569 c9ba 340c 333b b3f5 723c 6626 4b3c
000002c0: 93ae fdbb 8d10 31bc b424 85ba 8a04 133b
000002d0: dbad 1bbc 0b9a a4ba cb18 b73c e1cb 183d
000002e0: e9b5 863c 1434 3bbc f7fe 83bc 1c18 683c
000002f0: 4bbf 3e3c 8c22 003b d8a5 573b bbb2 c0ba
00000300: b94a a93c bbe8 6cbc b663 afbc 750b 213c
00000310: 67e0 2f3c 6754 5ebb 5e99 753c f6de 0abc
00000320: d2ae 453c d478 57bb 18c0 c83c aa63 98bc
00000330: 0119 6c3c 60c6 60bc c794 be3b 3e6a c0bc
00000340: 3d59 8bbc 9375 72bb 4e47 d23b 8b23 14bc
00000350: cc5b 23bb 624d 023c 7c37 76bb 2bf5 56bc
00000360: 27fa 1d3c b71e c93c d0ab 893c f703 c9bb
00000370: 6eca 39bc 2fd9 e13a ee48 493c 6e90 de3a
00000380: 1e55 433c 4914 81bc b590 553c ccd6 fbbc
00000390: 5f78 34bc d3ab 893c b747 273b edd0 863c
000003a0: 272e 87bc 3074 98bc 16c6 783c ee48 363c
000003b0: af3d c9bb 3891 223c 0c1d 42bc b5ef 51bc
000003c0: 4f1d e539 fe46 48b9 ee97 0bb7 280d 82b8
000003d0: f732 f6b7 b810 6637 e279 2838 0eb1 c838
000003e0: 2393 98b7 5d67 c2b8 310e a8b8 fa50 59b8
000003f0: 513d 0eb9 2888 9638 bcba 9736 4626 bbb9
-0.007907647 -0.0074855755 -0.013305821 0.016298598 -0.020037724 -0.0168836 -0.016245069 -0.0022463424
0.013113146 -0.0017778856 0.014761065 -0.008240826 -0.00082886365 0.010334174 0.011684286 0.009026031
-0.0033218826 -0.021124663 -0.010765925 0.012770067 0.008523133 -0.014425604 0.02252325 0.0067071775
-0.009827036 -0.0071795704 0.007059918 -0.007956462 -0.011153884 -0.012785391 0.007082163 -0.017085075
-0.008106896 -0.007855899 -0.009351819 0.008051513 0.004908024 0.011943327 -0.00598904 0.016425567
0.015936647 -0.026651835 0.008215298 -0.02681845 0.0077793333 -0.0076990854 0.020256422 0.009871554
-0.01618443 0.0011812407 0.011936137 -0.010507368 0.009724608 0.010587832 -0.021348597 -0.006455446
0.011840927 -0.0049966634 0.00768242 0.009587005 -0.0006891693 0.006024942 0.0097499 -0.0029499778
0.004920093 -0.0011140301 0.013663273 -0.0015494153 -0.0020854792 -0.0027357552 -0.014255397 4.2136246e-05
-0.0005980996 -0.012438272 -0.012484817 -0.0065645454 -0.0012430766 0.0011234045 -0.0007024008 -0.0016279939
0.014029572 0.01143415 -0.008580591 -0.021509545 -0.010552059 0.00791049 -0.0035518818 0.0007462894
0.017942034 0.018080758 0.006302127 -0.004270618 0.00424632 -0.0020391115 0.020313518 -0.0080757225
-0.0009907181 -0.006466441 -0.009841171 -0.009659046 -0.010752577 0.02122761 0.002551678 0.004949531
-0.005127463 0.002576919 0.011375232 0.007306451 -0.005060512 0.0017457964 -0.0005776038 -0.0036838055
0.0037635847 -0.010623025 0.0013152931 0.0037681493 -0.004255744 0.012307169 -0.01438821 0.012687238
0.012912776 0.008642396 0.0010769246 -0.015456614 -0.003195653 0.010328158 -0.0053414735 -0.003780919
0.0033312147 -0.016313488 0.0014825852 0.005454623 -0.005718406 0.008809034 0.003666865 0.0097847525
0.0029702026 -0.01402522 0.0075613963 0.027264316 -0.006599993 -0.011959149 0.02882052 -0.0067802826
-0.0020133215 0.0047814324 0.0067162192 0.008338298 -0.024560053 -0.008542981 0.00064041454 0.017647147
0.0019498123 0.002416697 -0.0055078655 -0.0100063225 -0.0020195202 0.011420476 0.010065059 0.021530263
0.011866494 0.0012442892 -0.0044808765 -0.007117204 -0.025015509 -0.020925814 -0.006505932 -0.0026776232
0.00072005927 -0.007012983 0.017433852 -0.001092378 -0.0015366586 0.0027320506 0.014829087 0.012399292
-0.007741758 -0.010807169 -0.0010158033 0.0022433125 -0.0095019 -0.0012558115 0.02235069 0.03730381
0.016444163 -0.011425991 -0.016112788 0.014165904 0.0116422875 0.0019551842 0.0032905247 -0.0014701703
0.020665513 -0.014459784 -0.02140985 0.009829392 0.010734654 -0.003392482 0.014990179 -0.00847601
0.012065606 -0.0032878416 0.02450566 -0.018602211 0.014410258 -0.013719171 0.0058160755 -0.02348816
-0.017010326 -0.003699635 0.0064171916 -0.009041677 -0.0024926541 0.00795302 -0.0037569692 -0.013119976
0.0096421605 0.024550779 0.01680556 -0.006134506 -0.011339767 0.0017230863 0.012285454 0.0016980299
0.011922149 -0.015756743 0.013034989 -0.030742072 -0.011015027 0.016805565 0.0025524923 0.016457045
-0.0165015 -0.01861009 0.015183946 0.011125786 -0.0061413865 0.009922318 -0.011847746 -0.012813498
0.0004370012 -0.00019099933 -8.3204195e-06 -6.2013336e-05 -2.9349218e-05 1.3712961e-05 4.0167834e-05 9.569722e-05
-1.8188328e-05 -9.269894e-05 -8.0135076e-05 -5.1812247e-05 -0.00013565017 7.1779185e-05 4.5218894e-06 -0.00035695935

layers1.1.weight f4 [1, 1440]
00000000: a1c9 25bc eba1 123b 4d98 863b 82fa 293b
00000010: fc90 9d3b 339d 12bc 8a72 e1bb bb5d 2fba
00000020: 3d1d 383c 75da 033c 5a67 073c fb25 4fbc
00000030: 778d 80bc 02a2 c5bb 6d28 54bb ee15 8d3b
00000040: 2bd2 1b3b abdf 5e3c 0857 b9ba 161d f6bb
00000050: 923c ae3c 7ab0 97bc c0da b73c 4ddf 7abc
00000060: 49f3 2bbc c7fe 703c 9136 933b d6b6 d03b
00000070: 050a 9fbc 2fdc 07bc 82e8 bd3c 4cc5 dfbb
00000080: 3a97 28bc 35c2 bbbb bf80 99bc 8801 94bc
00000090: e0e2 203b acb4 f7bc 743e 8cbc 7402 00bc
000000a0: 63a8 a93c 4589 063c 4be4 76bc 09b1 373c
000000b0: 2949 72bb f2d2 ce3c 7f5f ac3b 8cb6 7dbc
000000c0: db15 133c 69f5 123a 2432 e7bb bef2 143c
000000d0: ab9d 54bc 6aff 5d3c 8b8c 83bc a0d5 d93c
000000e0: dbf1 82bc 4399 4abb e488 f9bc 8c4c 2bbc
000000f0: 7662 13bb a009 a53a e570 28bb db2d 123c
00000100: 6a9d 483c cede 5abb b4de 3abc ac7e 153b
00000110: 2aaa ea3b a2bd 43bc 4672 b9bb 00bd deb9
00000120: 8b85 e63b a528 b43a 0b2b 7a3c 13eb f93b
00000130: ddc2 6d3c 4282 b9bb 381c e93b af76 193a
00000140: 16cd 95bb 2fb1 3f3c 6b40 543c 06a3 85ba
00000150: b8ba 5cbc 8498 33bb 6de1 83bc b291 273a
00000160: d646 19b9 1995 163c 1eed a8bc 58c2 b03b
00000170: ab7e d03b 9e1a 8fbb 21f7 3a3a 13d3 3a3b
00000180: 4125 25bc 2eb5 5bba bea9 943b 0245 56ba
00000190: d259 98b7 3293 c53c 7d06 d7bb 3939 88bb
000001a0: c2a0 003c e17e 68bb e04f 7d3c 5756 0e3c
000001b0: c043 773b 3334 f33b db0f b9bb 041c 113c
000001c0: 5e92 0d3c e992 ebbb c007 f03b 19e7 d2bb
000001d0: 0fa6 03bc 186e 043b 1624 1abb 7e6c 1b3c
000001e0: a919 6c3b 0ac1 dfbb 705a fbba a7e3 2c3a
000001f0: 78ff 53bc 2988 6b3c 7b79 013b fc5b 803c
00000200: a97b eb3c 8ac8 cabb c1c3 01bb 15d6 9bbb
00000210: d03f 11bc 2026 813c 8b68 5abb 795a 263b
00000220: 30b4 52bc 9207 763c 3430 8e3b e11f 313c
00000230: 5dc8 953c f485 7bbc 864a 27bc c56d deba
00000240: f690 a33c 57c8 bfbb 078f 523a c277 353c
00000250: e04f 9a3c 409f da3b 5246 42bb 90cb e53a
00000260: f886 e73b f01e e63b bc3f 753c 08c1 85bb
00000270: b2df ee3b 98d4 8e3c 9059 263a 47ac 923b
00000280: 78fc 4abb c607 20ba 4fa6 71bb 8876 9c3c
00000290: 027e 123d b42b a8bb 2d9e 193c c1a7 813c
000002a0: 2f6c bb3b 4ed6 7dbc 5932 2abc dec2 c83b
000002b0: 3b07 973c 6096 d53a 324e 20bc c44c aebc
000002c0: 6e08 053c 8232 6f3b fce7 1b3c 83ca 743c
000002d0: 18b6 af3a c946 033d 2f27 103c 6054 c7bb
000002e0: 0a60 3b3c f304 283c 747d a83a a0da 093b
000002f0: 439a d9bb 7e1f 7d3b ec77 98bb 82e3 163c
00000300: f56d 6ebb 127b ea3a 472f 9dbc 5ecc bcba
00000310: 4e56 9a3c 33a5 143c 2270 50bc 0443 113b
00000320: 7bcd a7bc ac90 babb 3b9f 0ebc 02bd 10bc
00000330: ec86 26bb e03e b639 2621 19bc 17bb 623a
00000340: 458b 31bc 5366 333c 7d38 303c 78ae e43b
00000350: 7af4 633c f765 1f3b 6ec4 bcbb 002c 0dbc
00000360: 6ccd c63a a2dd 12bc 4823 8bbc c62f f1ba
00000370: daf0 6a3c df1b 36bc 4890 e2bc 60b6 b73a
00000380: 519a 05bc 3512 0c3b ef99 283a 0bfa d43c
00000390: 28c0 02bd 2851 01bc 0d63 a7b9 fecc a5bc
000003a0: b7a1 4c3b 1ba0 a7bb 065f 71ba 5950 d3bb
000003b0: a0ff 0ebc b5c6 c0bc ee66 c4bb 1416 953b
000003c0: 679e a538 5d92 a9b6 ae73 75b5 5e1c f1b9
000003d0: e2e1 5cb7 4685 fbb4 2dca 98b8 5f4d 10b9
000003e0: 7b10 91b7 ba23 e2b7 9c69 37b8 0506 61b8
000003f0: d609 c2b8 de50 9db8 3720 dab7 17be 8b38
-0.010118873 0.0022374343 0.004107511 0.0025936668 0.0048085432 -0.008948612 -0.006880109 -0.0006689687
0.01123744 0.00804769 0.008264387 -0.012643333 -0.015692456 -0.0060312757 -0.0032372728 0.0043055927
0.0023776393 0.013603131 -0.0014140317 -0.0075107915 0.021269117 -0.018516768 0.022443175 -0.015312028
-0.010495015 0.014709181 0.004492589 0.006369452 -0.019413957 -0.008292242 0.023182157 -0.0068289395
-0.0102899615 -0.0057299384 -0.018738149 -0.018067136 0.002454929 -0.030237518 -0.017119624 -0.007813085
0.020710176 0.008211439 -0.015069078 0.011211642 -0.0036969876 0.025247071 0.0052604075 -0.015485417
0.008977379 0.0005606027 -0.007055538 0.009091077 -0.012977044 0.013549665 -0.016058227 0.026591122
-0.015984466 -0.0030914105 -0.030460782 -0.010455262 -0.0022489107 0.001259137 -0.0025702056 0.008922066
0.012244562 -0.0033396962 -0.011405636 0.0022811098 0.0071613984 -0.011947067 -0.0056593744 -0.00042483956
0.0070349625 0.0013745023 0.015269051 0.0076269 0.014511791 -0.00566128 0.0071139596 0.0005854172
-0.0045715673 0.011699959 0.012954812 -0.001019568 -0.013472252 -0.0027404139 -0.016098702 0.0006392255
-0.00014617605 0.009190821 -0.020620879 0.0053942613 0.0063627562 -0.0043671867 0.0007132162 0.0028507158
-0.010079683 -0.0008381185 0.0045368364 -0.0008173735 -1.8161638e-05 0.02411804 -0.0065620528 -0.004157212
0.007850828 -0.0035476016 0.015460938 0.008687577 0.003772959 0.007421994 -0.005647642 0.008856777
0.008640854 -0.007189144 0.0073251426 -0.0064362404 -0.008035197 0.0020207223 -0.0023520044 0.009486316
0.0036026037 -0.006828432 -0.0019176733 0.0006595202 -0.012939326 0.014375725 0.0019756246 0.015668862
0.02874549 -0.006188457 -0.0019800516 -0.004755745 -0.008865312 0.01576525 -0.0033326473 0.0025383516
-0.012860343 0.015016453 0.0043392424 0.010810823 0.018284017 -0.015351761 -0.010210639 -0.001696997
0.019966584 -0.00585274 0.0008032177 0.011075916 0.018836915 0.006671816 -0.0029643965 0.001753198
0.00706565 0.007022731 0.014968809 -0.004081849 0.00728985 0.017435357 0.00063457433 0.0044761035
-0.0030973237 -0.0006104674 -0.003687281 0.019099489 0.0357647 -0.005132163 0.009376091 0.015827062
0.0057196836 -0.015492989 -0.01038798 0.0061267456 0.018436065 0.0016295426 -0.009784268 -0.02127684
0.008119686 0.003649861 0.009515759 0.014940861 0.0013405709 0.032049928 0.008798405 -0.0060830563
0.011436472 0.010255086 0.0012854771 0.0021034852 -0.006640704 0.0038623507 -0.0046529677 0.0092095155
-0.0036381457 0.0017889461 -0.019187583 -0.0014404168 0.018839981 0.00907259 -0.012722047 0.0022165189
-0.020483723 -0.0056935158 -0.008704956 -0.0088341255 -0.002541001 0.0003476059 -0.009346282 0.00086490944
-0.010836427 0.010949689 0.010755655 0.006978806 0.013913268 0.002432225 -0.005760721 -0.008616447
0.0015167422 -0.008963974 -0.016984597 -0.0018401078 0.01433965 -0.011115043 -0.02765669 0.0014016144
-0.008154468 0.0021373157 0.00064316293 0.025998136 -0.031921536 -0.007892884 -0.0003192652 -0.02023935
0.003122432 -0.0051155216 -0.000920758 -0.006448787 -0.008727938 -0.02353225 -0.0059937155 0.004549751
7.897318e-05 -5.0536314e-06 -9.143795e-07 -0.00045988237 -1.3165614e-05 -4.6849362e-07 -7.285583e-05 -0.00013761733
-1.7293021e-05 -2.6957936e-05 -4.3728956e-05 -5.3649786e-05 -9.252473e-05 -7.501406e-05 -2.6002626e-05 6.6634435e-05

layers1.2.weight f4 [1, 1440]
00000000: 034c 75bb 717a ffbb dffc 57bc 2213 5c3c
00000010: c7bf ef3b f886 18bc 6b92 6a3c 769a cabb
00000020: 22ee eb3c c01a 7f3c 709f f93b 4f11 103c
00000030: b5fc 62bb e5b6 10b9 2cac af3c b745 6fbc
00000040: c398 42bc e88d 4f3a 4fff c23a 0311 acbb
00000050: b3bc 6a3c ddf0 40ba 2ec9 e1bb 4751 8ebc
00000060: 761b e6bb f752 96bb 0fd4 b53a f07c 003c
00000070: 2219 9c3c c181 87bb 4e38 48bb 1be3 143c
00000080: 4683 8cbb 0017 adbb 6531 ad3b af25 ec3b
00000090: e463 373c ca9d b7bb 9945 813c f2d1 613c
000000a0: b650 ddbb c019 663b cb95 e9bb 1fba 45bc
000000b0: 7c1e 1dbc 412c 5c3c 87d0 993b 73cc f6bb
000000c0: ecfc f63b 53ce ab3c 6796 933c 9f23 2abc
000000d0: 2843 1e3c 4bb6 adbb b1b8 ad3b 76b3 62bc
000000e0: 15b3 a6b9 cfdb 323c 9ba5 b0bb f01a 10bc
000000f0: f4fe bcbb f371 6d3c af82 de3c f2f1 75bb
00000100: 4563 723c 50f7 0d3a 8ed8 c83b 2050 9e3c
00000110: c23b abb9 f793 28bc 67d6 aa3b c983 0bba
00000120: 61f2 fdbb 7c82 093c 1809 543a 2ba5 563b
00000130: f8e0 4d3b fb09 6dbc 9afc 1fba fc51 cabb
00000140: a9e7 1aba 4634 42bc d782 da3b 2bd7 d73b
00000150: 9611 06bc 03ef 9dbb 1c0f eebb da65 073c
00000160: deac 4f3c c7e8 c13b e750 d8ba a6fe c03b
00000170: dd28 d53c 58ec 4d3c 4f2d 5fbc c50e 8e39
00000180: a991 1f3c a4f6 b8bb 2977 f3bb 0d4c 3438
00000190: 52f5 3ebb 3453 903b a2f0 993b 6667 c63b
000001a0: 8f90 bfbb b9a1 a83b 2118 d7b8 3d8c 5c3c
000001b0: 47dc 61ba 3c3f a53b 0c41 4dbc 0e1d 9b3b
000001c0: bb03 c1bb aef7 aabb 1c82 553c e054 493a
000001d0: c7d7 633c c1f6 673b 6f5c e4ba 2e0f ad3b
000001e0: 6987 5ebb fbdb f33c 16ba 85bc dc77 babc
000001f0: 099d 013c 4b0d 3737 4dbc a6bb bdb3 d9bb
00000200: 937b fc3b cd89 4bbc b960 80bc 2e4a 00bc
00000210: f76c 90bb 85d3 30bc c137 f2bb 2b01 b3bc
00000220: 7d1a 51bc c719 843b 69f9 7b3b f044 debb
00000230: 4e82 3dbc 709b 2d3b 5df4 943c a690 0a3c
00000240: c719 c7bb c76c 56bc 441d 10bc 9bbd 2b3a
00000250: 5575 1b3c e826 9039 950e dd3b 7058 ff3b
00000260: 5b56 9cbc 7c0b 73bb 562b 293a dd87 fd3b
00000270: e38a 8e3a 6a4a c23b 9645 163c b037 3fbc
00000280: a94b babb 7c4b 9abb 0d20 073c c5c5 503a
00000290: a7b4 58bc 27eb 88bc 9cf0 a33b 9279 f5bb
000002a0: 8f5f 54bc 12a5 cf3c c96d bcbb a400 393b
000002b0: c598 acba b278 2ebc 066d 803c 42aa b8bc
000002c0: 7253 67bc 3899 253c 77f9 2bbc 4ebe 43bb
000002d0: 531d c1b9 d4d1 debb 71d2 85bc ab0d aabb
000002e0: d5b8 9bbc b6fb abbb 4fe7 aabb 461f c0bb
000002f0: 87cc 70bb 5c4f 9fbc 02d3 ba3a 3842 6e3c
00000300: 940c e03a b6d1 3c3b 8b80 803c acb1 d4bb
00000310: f05f 9cbc b7a9 3dbc f90a eebb 5350 db3b
00000320: 466d cd3b 6be2 b53b ab3d 54bb 7e0e a23b
00000330: f640 823c 21a7 0fbc 954a 5e3b 1fd2 c2ba
00000340: 7df0 e4b9 0563 83bc 63a2 e33a d3ce b6bc
00000350: 40a7 d43c 3b22 873b 1b35 f23b ef71 3abc
00000360: 3f52 a3ba cd2d 47bc 6908 babb 76b1 263b
00000370: 66f2 833a 731f 023b 4f3f ff3a 0476 4c3c
00000380: f452 e73a 03ac 6ebc 4b32 3abb 419b ba3b
00000390: b98b 28bc 1117 61bc bdab 4b3b 0dcd 753a
000003a0: fb97 51b9 2f91 c9bb e83d 4d3c 9368 dfba
000003b0: a23d 3c3c 5ee5 673b 03c8 8b3a 44ab 09bc
000003c0: 4c9e 23b8 5988 1eb8 7c01 23b7 b51c a9b8
000003d0: f191 0136 70a4 dcb7 703c bc38 4222 8038
000003e0: 5e56 3038 5f9d d5b7 3f87 ceb7 ccc6 06b8
000003f0: 4eb1 4ab8 6969 1c38 557d 1738 2290 92b6
-0.003742934 -0.0077965786 -0.013182848 0.013432296 0.007316563 -0.009309523 0.014317135 -0.006182964
0.028800074 0.015570343 0.0076178834 0.008793189 -0.0034635488 -0.00013801044 0.021444403 -0.014604024
-0.011877242 0.0007917569 0.0014877113 -0.0052510514 0.014327216 -0.000736011 -0.0068904376 -0.01737274
-0.0070223166 -0.004587527 0.0013872402 0.007842287 0.019054953 -0.004135341 -0.0030551138 0.009087349
-0.00428811 -0.005282283 0.0052854293 0.0072066407 0.011193249 -0.0056035267 0.015780257 0.013782965
-0.0067540063 0.0035110563 -0.0071284524 -0.0120683005 -0.009589788 0.013438285 0.004694048 -0.0075316965
0.007537475 0.020972406 0.018016053 -0.010384469 0.009659566 -0.005301272 0.005301558 -0.013836732
-0.00031795414 0.010916664 -0.0053908355 -0.008795485 -0.0057676975 0.0144925 0.027161924 -0.0037528244
0.0147941755 0.00054155756 0.006129331 0.019325316 -0.00032660185 -0.010289184 0.005213547 -0.0005322067
-0.007749841 0.008392926 0.0008088513 0.0032752256 0.003141461 -0.014467712 -0.0006103009 -0.006174324
-0.0005909154 -0.011853283 0.0066684294 0.0065869293 -0.008182904 -0.004819752 -0.007264985 0.008264029
0.012675492 0.005917642 -0.0016503603 0.0058897315 0.026020462 0.012568556 -0.013621642 0.00027095355
0.009739318 -0.005644636 -0.0074299765 4.2986172e-05 -0.0029137922 0.00440445 0.004697875 0.0060548065
-0.00584609 0.005146232 -0.00010256493 0.01346117 -0.0008615893 0.0050429385 -0.012527715 0.004733688
-0.0058903373 -0.005217514 0.013031509 0.0007680189 0.013906426 0.003539488 -0.0017422567 0.0052813506
-0.0033955222 0.02976798 -0.016324084 -0.022762232 0.007910975 1.0910745e-05 -0.005088365 -0.006643741
0.007705161 -0.012422991 -0.015671121 -0.007830186 -0.004407521 -0.010792618 -0.0073919003 -0.021851143
-0.012762663 0.004031393 0.003844822 -0.0067831203 -0.011566712 0.0026490353 0.018182928 0.008457338
-0.006076071 -0.013087458 -0.00879604 0.0006551386 0.009488423 0.00027494808 0.006746123 0.007792525
-0.019084146 -0.0037085703 0.0006453296 0.0077371434 0.0010875132 0.005929281 0.009171864 -0.011670992
-0.005685289 -0.0047087055 0.008247388 0.000796404 -0.013226665 -0.016713692 0.005003048 -0.007491299
-0.012962236 0.025347266 -0.005750392 0.0028229142 -0.0013168087 -0.010648893 0.015676986 -0.022542123
-0.014119016 0.010107331 -0.010496489 -0.002986807 -0.00036833677 -0.006799916 -0.016335698 -0.0051896176
-0.019009033 -0.005248512 -0.0052155624 -0.005863103 -0.0036743002 -0.019447021 0.0014253559 0.014542155
0.0017093592 0.002881152 0.015686294 -0.0064909067 -0.019088715 -0.011576108 -0.0072644916 0.006692925
0.00626913 0.0055506728 -0.003238539 0.0049455753 0.015900116 -0.008767874 0.0033918966 -0.0014863646
-0.00043666727 -0.016038427 0.0017367121 -0.022315418 0.025958657 0.0041239536 0.0073915846 -0.011379703
-0.0012460424 -0.012156916 -0.005677272 0.0025435365 0.0010066747 0.001985517 0.0019473823 0.012479309
0.0017648623 -0.014567378 -0.0028411325 0.0056947772 -0.010287219 -0.01373841 0.0031077706 0.0009376563
-0.0001998841 -0.0061513404 0.012526967 -0.0017044715 0.011489304 0.0035384516 0.0010664467 -0.008402649
-3.9009654e-05 -3.779712e-05 -9.715903e-06 -8.063895e-05 1.9307447e-06 -2.6302616e-05 8.975796e-05 6.109897e-05
4.2042106e-05 -2.546486e-05 -2.4620093e-05 -3.2133234e-05 -4.832568e-05 3.729147e-05 3.611793e-05 -4.3679183e-06

layers1.3.weight f4 [1, 1440]
00000000: 6442 2abb 0fb7 0cbc 3e50 3a3b 41c4 1dbc
00000010: bcd7 0f3c 70a5 efbc 0706 5abb 9fb0 1b3c
00000020: 9cf3 02bd 46a3 0bbc 0c23 5b3c 63aa fa3b
00000030: 13c6 b4bb 9727 fe3a 3ff1 eebb 3b2e 743c
00000040: 9e13 acbb be24 153c e6d5 11bb f954 b53c
00000050: 1347 7dbc 0469 d63b fc7b a43c 7822 19bc
00000060: 15ec 5aba e3ee 773a 4658 14bb 6d04 4ebc
00000070: abae 1bbc 926c 8bbc 1a77 583c 5fa5 bfbc
00000080: 9d44 1c3b 3bd7 6fbc 572f 14bb d523 86bc
00000090: a823 d9bc 686f 25bc 25b6 9bba a28a 73bc
000000a0: c8bf 92bb ebf1 d1bc 7991 20ba bd54 943c
000000b0: b6f7 9a3c 09c2 a0bc 10b7 05bb 4ba1 03bc
000000c0: 89f9 993c 9156 783c a4b5 47bb b3be 113c
000000d0: 86b5 dd3b d8b1 763c f3dd 0cbb 2a1b f4bb
000000e0: c96a 09bc 4586 00bc 70cf 1d3c dc3a 353c
000000f0: 78a3 c7ba ddad 8d3b d409 d3ba 872a a1bc
00000100: e72e ca3a c507 213c 7eaf b6bb bea6 83bc
00000110: ab5a 933b 54b1 bdbb e142 6fba 1bfe 763c
00000120: dbe9 363b 3235 773c 8c03 4f3c 1ac1 113c
00000130: 267f f83b 0378 1e3c 279c 513a 853e f23a
00000140: 2ee9 a03b 69a0 323b 39af 0dbb 73ed 97ba
00000150: 7f20 023c fb1b 943c 46e7 593c a7da 973b
00000160: c726 833b 2b1b bebb ff53 8cbb e493 993a
00000170: 3e3c 293b 8aa7 4dbc d541 1e3b ea77 a2bc
00000180: 48de 08bc f485 4c3b adc7 0ebc f737 b839
00000190: 127f ae3b 933a a8bb a23f 3fbc 1d50 b23b
000001a0: 81c4 57bc b2c3 d43b c241 37bb 407c 1c3c
000001b0: 8040 09bc 46ec 893c be24 67bc efcb 76bb
000001c0: 797c bd3b ae5c adbb abc4 a8bb f42e 94bc
000001d0: abee e43b 80ca 52bc 3edf 2fbc fdea 9c3b
000001e0: 1701 843b 86b1 3bbb 0d9f 87bb 0a16 46bc
000001f0: 69c7 203c 308b 31bb ac3d ea3a 25b7 2e3b
00000200: 1ed3 42bc 2d83 323c 1a07 0fbc 80a7 653b
00000210: dc1b febb 69cb 1d3b a315 19bb d55f 5ebc
00000220: a083 80bb c0e8 5ebb 3e1b 13bb f91d 3cbc
00000230: 4106 7cbc 48fc 86bb e0c0 a9ba 10b8 c43b
00000240: e6f7 7b3b a1b0 9eba 0f72 e9bc 4642 513b
00000250: cf46 a0ba ac9d f639 fbf4 cdbb d636 ae3b
00000260: c7a2 b33b 855f 80bc 540f b039 f991 d2bb
00000270: d052 5c3c eb84 25bb 9b52 0cbc 62f9 b7bb
00000280: ce58 2ebc 9dda 063c f72c de3b 17d1 803c
00000290: 6057 82bc 2f7f 013c b7fd 6cbb 8f99 403c
000002a0: 4251 c9bb 4701 3c3a 897e 9c3b e6ba 7439
000002b0: 3320 e6bc dc24 fe3a f83b 0c3c 1355 183c
000002c0: 1b52 003c 2f22 6f3c e9e1 1d3c c28a 14bc
000002d0: 227a 16bc 4617 c33b 392c c23c 396d 69bc
000002e0: d1af 6bbb 7191 52bc a5da 883c 0d96 94bb
000002f0: f0dc 0dbd 24cb 9a3b d2f9 05bc a0ff 48bc
00000300: 6592 483c 0ada f0ba 0e12 033d 2425 f5bb
00000310: f261 4d3c 3746 1c3c ca6a 5c3b 30f8 cb3b
00000320: f21b 923c 6d3c 07b9 3916 57bc ac15 943b
00000330: 52e5 cabc 3868 79bb d93e 2cbb 7fb4 81bb
00000340: f392 0cbb c92e d43b 35ed 493c 87a2 07bc
00000350: be91 823c 5f3f 17bc 5ad0 403b 0794 dabc
00000360: d58f 293b e76e cc3b a933 1cbc 932e 98bc
00000370: 2ae2 f8bb 8685 69bb 54c6 d93b 3760 5dbc
00000380: 9a8d 86bc 67c1 603c fe29 0dbc 8729 ceba
00000390: b994 83bb b813 963c 6002 c4bb 77e9 cfbc
000003a0: 509c 383c ad36 b9bc 95d6 563c e733 073d
000003b0: 647d 7a3c 3d93 09bc b2e3 0cbc a2b0 bdbc
000003c0: ee14 2fb8 f424 c838 8061 9db8 26c1 c937
000003d0: a522 7e37 2534 36b8 734e 0eb9 f254 2f38
000003e0: 2e7d 6cb9 a294 e1b8 c6b0 613a f702 6935
000003f0: 46c7 443a bce7 0bb9 6e42 1e39 a572 d0b7
-0.0025979513 -0.008588566 0.0028429176 -0.00962931 0.008779462 -0.029253691 -0.0033267753 0.009502559
-0.031970605 -0.008522814 0.013375055 0.007649706 -0.0055167763 0.0019390461 -0.0072919424 0.0149036
-0.005251362 0.009102998 -0.0022252738 0.022135245 -0.01545884 0.0065432806 0.020078652 -0.009346597
-0.0008351219 0.0009457899 -0.0022635623 -0.012574297 -0.009502093 -0.017019544 0.01321199 -0.023394285
0.0023844608 -0.014638717 -0.0022611225 -0.016374508 -0.02650626 -0.010097362 -0.0011879845 -0.014864596
-0.0044784285 -0.02562805 -0.0006125193 0.018106813 0.018916946 -0.019623773 -0.0020403303 -0.008034061
0.018795745 0.015157358 -0.0030473256 0.008895564 0.006766024 0.01505705 -0.0021494597 -0.0074495273
-0.008387276 -0.007844512 0.0096319765 0.011061396 -0.0015231213 0.0043237046 -0.0016100951 -0.019673599
0.0015425355 0.009828513 -0.0055751195 -0.01607072 0.0044968924 -0.0057889614 -0.0009127092 0.015075232
0.0027910385 0.015088366 0.012635123 0.008896137 0.0075835166 0.009672168 0.0007995986 0.0018481767
0.0049106097 0.0027256256 -0.0021619333 -0.0011591151 0.007942318 0.018079748 0.013299769 0.0046342197
0.0040024254 -0.0058015785 -0.004282474 0.0011717048 0.002582326 -0.012552151 0.0024148126 -0.01983257
-0.008353777 0.0031207772 -0.008714599 0.00035136912 0.0053252066 -0.0051339357 -0.011672886 0.005441679
-0.013169409 0.0064930553 -0.0027962779 0.009551108 -0.008377194 0.016836297 -0.014107881 -0.0037658175
0.0057826606 -0.0052905893 -0.005150398 -0.018088795 0.0069864593 -0.012865663 -0.010734377 0.004788755
0.00402845 -0.0028639748 -0.0041388334 -0.012090215 0.009813168 -0.002709102 0.0017871163 0.0026659456
-0.011891155 0.010895533 -0.0087297205 0.0035042465 -0.007754786 0.002407754 -0.0023358844 -0.013572653
-0.003921941 -0.0034013242 -0.0022446658 -0.011481755 -0.01538235 -0.0041194297 -0.0012951158 0.0060033873
0.003844732 -0.0012107083 -0.02849677 0.0031930371 -0.0012228134 0.0004703825 -0.0062853075 0.0053165955
0.005482051 -0.015670547 0.00033580756 -0.0064260927 0.013447478 -0.0025256227 -0.008564617 -0.0056144455
-0.01064129 0.008230832 0.0067802626 0.015724702 -0.015910804 0.007903858 -0.0036161968 0.011755361
-0.00614372 0.0007171821 0.0047758264 0.00023339278 -0.028091526 0.0019389647 0.00855922 0.009297627
0.0078320755 0.014595552 0.009636381 -0.009066286 -0.009184392 0.005953702 0.023702728 -0.014247232
-0.003596295 -0.012852059 0.01670582 -0.004534489 -0.03463453 0.0047239233 -0.008177238 -0.012267977
0.012241934 -0.0018375528 0.03199964 -0.007481234 0.012535559 0.009538225 0.0033632987 0.0062246546
0.017835591 -0.00012897114 -0.013127857 0.004519185 -0.024767552 -0.0038056504 -0.0026282577 -0.0039582844
-0.0021449893 0.006475304 0.012324621 -0.008278496 0.015938636 -0.009231417 0.0029421062 -0.026681913
0.0025873084 0.0062388065 -0.009533801 -0.018576896 -0.00759532 -0.0035632565 0.006645957 -0.013511709
-0.016424943 0.013717986 -0.008615969 -0.0015728929 -0.004015532 0.01831995 -0.0059817284 -0.02537988
0.011267737 -0.02260908 0.013112684 0.033008482 0.0152886845 -0.008396921 -0.008599209 -0.023155514
-4.1742744e-05 9.543626e-05 -7.504504e-05 2.4051009e-05 1.5147646e-05 -4.3440745e-05 -0.000135714 4.1802363e-05
-0.00022553347 -0.00010756521 0.000860941 8.680358e-07 0.00075065007 -0.00013342401 0.00015092801 -2.4848918e-05

layers2.0.weight f4 [1, 1440]
00000000: 0d91 963b b645 073d aaf5 863c 7d3f 003c
00000010: 7961 6b3b d0cc 583b 6a86 9e3c 8ccb d8bb
00000020: 2c3b 6dbc 6785 023c f068 383a bddb 25bc
00000030: fdbd 283b da06 803c 4f41 00bb df9f 11bc
00000040: 7b72 70bc 091e 91bb fbcb 41bb 0de3 35bb
00000050: e6c5 c1bc 7bf1 acbb 9bab ef3b f9b1 913c
00000060: cbaf 653a 1c45 643c ea82 dabb 44b2 103c
00000070: 106d d33b 3c67 413c 59bc ff3b dc13 cebb
00000080: 6e9e 683b a22c 203c 408f 0b3b db2f afba
00000090: 1ce9 d23b 3290 7f3b 532d 583b b3f1 2d3c
000000a0: e956 a2bb a169 f9bb 8983 77bb 5648 833c
000000b0: 2cde 5ebc fdde 2dbc a0f1 2ebb 87c5 92bc
000000c0: 07c8 8b3b f91c e43a 356e d9bb 0f3b bb3b
000000d0: 25d8 d5bb d016 bbbb 6e77 7d3b 8467 363c
000000e0: 4ee4 10bc 7b97 af3c 001b d43b 1da4 0abb
000000f0: 828e 18bc 52b4 2e3b ebc9 82bc acad e6ba
00000100: c404 a0bb 132a 29bb 33aa c83b 45a9 513b
00000110: 8113 54bc 89ab 393c 5dda 863b 7422 e4b9
00000120: 8756 fa3b a333 0cbc 7331 45bc e64f 92bb
00000130: 87de a73a 952d 76bb 64ef 38bb 0278 903c
00000140: 6bb9 ac3b 3ccb 2c3c 0106 7b3b 2e04 3a3b
00000150: f9da 813b 184b 813a 493e bdbb bdf0 6dbb
00000160: 5ad1 a1bb 44e8 aabc b764 0c3c b970 0b3b
00000170: 264e 20bc 6625 51bc 665d 5ebc 4208 57bc
00000180: 3d39 243c f901 f73a 0741 cf3b b428 65bb
00000190: 7979 f53b de14 4dbc 557e d33b fcd8 48bc
000001a0: 8280 d0bb d7ce 2d3c 2587 d13a 06cf d53b
000001b0: 7553 c53b 4298 93bb 6416 c73b 3ca2 eebb
000001c0: 58f5 72ba ce05 333c eaa6 fcbb 87ca 1fbc
000001d0: f01e 223b a59c 3a3c dde2 0dbc c57f 2cbc
000001e0: 70d0 04bb 5b7e 92bc 4b7a 6e3b 67ff 083a
000001f0: ac76 fa3b f461 59bb 4751 83bc 6723 dbbb
00000200: 4fa2 bebb e0af 603c 0390 813c b2b3 3bb9
00000210: 84ba 85bc c1f8 2cbb 6530 37ba 45f8 d3bc
00000220: 86a2 15bc 8bfe 413c 6b31 283c f203 673c
00000230: 3d91 6a3c dd6b 9f38 265c b0ba 6555 1b3c
00000240: 2c30 f83b 5099 83bb 2fbf 8139 1311 8b3c
00000250: eab9 e6ba 60b5 45bc 6e0e 19bc fb9d 7ebb
00000260: a6df 5e3c d0fc 26bc 6627 983b 1447 c2bb
00000270: 9773 4b3c 9ed3 bc3c e677 633c 02cc 193b
00000280: 60a1 a2bb 6759 dfbb 2f2d ca3b 9e7a 55ba
00000290: ee3f a7bb f8c5 6ebc dda8 4dbc eabb c639
000002a0: 8e1f 8c3c aab3 f73b d341 603b 2d4e b13b
000002b0: bb20 5239 9b01 d43b 8efc 163c 063f 303c
000002c0: 9930 32bc 52ee 2fbc 33b0 c53a f901 95bc
000002d0: b565 bcbb b992 b239 eab8 d3bb 74b3 42bc
000002e0: b30c 353b 1333 33bc 173c ad3b 37f6 ef3b
000002f0: 85f7 48bb 86ac 0839 8dac 263b ae00 0b3c
00000300: 6613 7b3c 5d3d 01bd b4c1 39bc 4a69 543b
00000310: d73a 69ba ef33 fc3a f5ee 01bc 8b3f 823c
00000320: 5718 303c 3da1 2a3b ebe8 a2ba 4702 66bc
00000330: 6b2b 893c 31f6 193b 2b10 a83b 555a 473c
00000340: 0e42 e9bc 65cf 8fba 42d4 30bc ce78 533b
00000350: 8e5e aabb cef8 ffbb 1ecd a03b 7711 263b
00000360: f2ec 923c 215e b3ba 218e 6a3c 4e0f 4abc
00000370: b28d ddbb 6a61 b3bb b008 a7bc a944 823b
00000380: 0984 aabb b995 69bb 80fd 1e3c f271 893c
00000390: 751a bcbb 4f6a 77bc 87f4 023a 5eab 563b
000003a0: 3d4b c03b 2ed8 19bb 5d36 b43b 678c 603b
000003b0: 5e8e b93b 4f8f c9bb 98ce c1bc 9e21 b8bb
000003c0: 61ca d63b 00e6 f43b 0d9d 97bc 23b9 133b
000003d0: 4977 763c d588 233c c6c8 87bc 3d08 afbb
000003e0: a901 32bb 1b44 14bc 0d46 383b dbc3 99bb
000003f0: 454d cf3b 656c 723c 45a0 5abc 4215 4a3c
0.004594928 0.033025466 0.016474564 0.007827637 0.0035916253 0.0033081062 0.019351203 -0.0066160616
-0.01447944 0.007966376 0.000703468 -0.0101231905 0.0025748007 0.015628267 -0.0019570177 -0.008888214
-0.014675732 -0.0044286293 -0.0029571045 -0.002775374 -0.023653936 -0.00527781 0.007314158 0.01778506
0.0008761852 0.013932493 -0.006668438 0.008831564 0.0064522102 0.011804398 0.007804435 -0.0062889885
0.0035494822 0.009776266 0.00212951 -0.0013365702 0.00643648 0.003899586 0.0032986 0.010616708
-0.004954208 -0.007611469 -0.003776761 0.016025703 -0.013602775 -0.010612247 -0.0026694313 -0.017916454
0.0042657885 0.0017403654 -0.006635452 0.0057138274 -0.0065260106 -0.0057095066 0.0038675922 0.0111330785
-0.008843495 0.021434536 0.006472945 -0.0021154948 -0.00931132 0.0026657772 -0.015965423 -0.0017599366
-0.0048833806 -0.0025812432 0.006123805 0.0031991762 -0.012944103 0.011332401 0.0041153864 -0.00043513218
0.0076397094 -0.008557233 -0.012035715 -0.004465091 0.0012807407 -0.003756379 -0.002821886 0.01763535
0.005271127 0.010546502 0.003830314 0.002838384 0.003962871 0.0009864299 -0.0057752472 -0.0036306821
-0.0049382867 -0.020862706 0.008568934 0.0021276905 -0.009784257 -0.012765264 -0.013572073 -0.013124527
0.010023412 0.0018845192 0.0063248905 -0.0034966888 0.0074912873 -0.012517182 0.006454269 -0.012258764
-0.0063629756 0.0106083965 0.0015985711 0.0065249233 0.0060219117 -0.0045042345 0.006075667 -0.0072825234
-0.00092681265 0.010926677 -0.0077103274 -0.009752876 0.0024737678 0.011389886 -0.008660045 -0.0105285095
-0.002026584 -0.017882517 0.003638881 0.0005226046 0.0076435413 -0.0033169957 -0.016029967 -0.00668757
-0.0058176885 0.013713807 0.01581574 -0.00017900651 -0.01632429 -0.0026393386 -0.00069881073 -0.02587522
-0.009132987 0.011840473 0.010265688 0.014100062 0.014316854 7.601802e-05 -0.0013455197 0.009480809
0.007574102 -0.004016079 0.0002474724 0.016975915 -0.0017603014 -0.012067169 -0.009341819 -0.0038851488
0.013603127 -0.010192111 0.0046433685 -0.0059288833 0.0124176955 0.023050126 0.0138835665 0.0023467545
-0.004963085 -0.0068160775 0.006169937 -0.00081435766 -0.0051040566 -0.014573567 -0.012552467 0.0003790551
0.01710489 0.0075592594 0.0034218922 0.0054109306 0.00020039354 0.006469918 0.009215487 0.010757213
-0.010875844 -0.010737972 0.0015082419 -0.018189417 -0.005749429 0.00034060123 -0.0064612525 -0.011883605
0.0027625978 -0.01093747 0.0052867043 0.0073230523 -0.0030665111 0.0001303424 0.0025432438 0.008484049
0.015324449 -0.03155266 -0.011337686 0.003241139 -0.00088970124 0.0019241552 -0.007930507 0.01589944
0.010747991 0.0026036047 -0.0012429034 -0.014038629 0.016744336 0.0023492689 0.0051288805 0.012167533
-0.02847388 -0.0010971843 -0.010792794 0.003226805 -0.00519926 -0.0078116423 0.0049072644 0.002534
0.01793525 -0.0013684669 0.014316113 -0.0123327505 -0.006761276 -0.005474259 -0.020389885 0.00397547
-0.005203728 -0.003564222 0.009703994 0.016777966 -0.0057404586 -0.01510103 0.0004995544 0.0032755951
0.005868344 -0.00234748 0.0054996447 0.0034263374 0.0056627234 -0.006151117 -0.023658082 -0.005619242
0.006554887 0.007473707 -0.018507505 0.002254077 0.015043088 0.009981354 -0.016575228 -0.0053415583
-0.0027161634 -0.009049441 0.0028117925 -0.0046925372 0.00632635 0.014796351 -0.013343875 0.01233417

layers2.1.weight f4 [1, 1440]
00000000: 0e88 d73b 273a 63bc e1a1 81bc 6d51 9bbc
00000010: d913 8cba d9fd 973c 002f 06bc 88eb fe3a
00000020: 4c8c d33b a177 71ba 226b 293c 1956 8f3b
00000030: a7e9 8c3b eb4d f7bc e51f 2cbc f7c4 133c
00000040: 979e babb 6ffc 603c aae9 603c 3ab9 a6bc
00000050: 7fa1 de3c c045 73bc 7069 a8bb 424f 0d3c
00000060: 6113 423c 8820 74bc 048b adbc 4bbb 55bc
00000070: f0ab a1bc 1efd 00ba e10b 433c 43a1 533b
00000080: e378 9fbc a28b be3c 312f 8b3c 46a9 a7bc
00000090: c419 9ebb 8cf8 adbc bc4d b83a 1191 9fbc
000000a0: a427 1e3c f4b1 a8bb 29be 2bbc 5d36 c33c
000000b0: 824f 373c 3e0d deba e315 ea3b 78bf b4bc
000000c0: 71be 4c3c fba3 95bb 78f2 30bb 2072 24bc
000000d0: d866 29bc 95a3 c73b 8887 0f3c da9b 77bb
000000e0: 5350 92bc 78ce 8abb a073 72bc b06f a23b
000000f0: 2535 cebb 1b8a 873c d607 943a 5465 62bc
00000100: d96b 573a 092f 5fbc ae4e 533b a152 573c
00000110: 8fdf 693b de5a bdba dd8e a13c fb2c 623a
00000120: 09df 4ebc 4761 193c 4100 4dbb c6cf 483c
00000130: bb13 b73b 67ba 873c a11d b63b 6f04 df3b
00000140: c983 3a3c 3c65 00bb f2c0 7b3c b99c 833a
00000150: cd45 a53c 005b 1cbc 0039 1ebc b24b 6abb
00000160: 3ba7 28bc 6d07 cc3b 29fa c4bb 4ecc 1abb
00000170: 874f bdbb 2a0f 4d3b 66e4 d9bb f794 c53a
00000180: 15e4 8d3c f70e 843c 942e 243c afe0 173b
00000190: 19af dc3b e599 72bc b21a 22bb 9aef 9abc
000001a0: a2f3 61bc f531 96bb c4aa 04bc 0c9c 623c
000001b0: 70ba 4c3c 98d7 db3b 4934 053b 9b68 fcbb
000001c0: 870b d53a 60e6 403c 026b 92bc 9cea b1ba
000001d0: 694c 9c3c 5d9d dbba 5dea dc3b 0691 bcbc
000001e0: a005 28bb 38d5 e13b db62 66bc fc49 953b
000001f0: 681f 893c d098 99bb 1fdf 913b d049 6abb
00000200: 844c acba c1a4 3a3c bbe0 743c 99d0 583a
00000210: 93a0 483c 9bf2 15bc 4977 85ba 6fe3 0cbc
00000220: 571c a13b d266 e5ba 7c33 5c3c 2bad 623b
00000230: c150 ee3b e4bc 38bc b581 623c 6aa1 dfbb
00000240: d4fc 813b 1c2d d13c f6e1 853b fe23 2a3c
00000250: bbde 023c fcc6 e53a c3b1 95bc ed76 953c
00000260: 8332 17bc 21ce a83a 2484 b2bb c03c ef3b
00000270: b71e 4bbc 6a4c e23b 471f 9838 c983 e53b
00000280: fcb9 383c 222c 68bb 8ac4 29ba 2106 babb
00000290: 84be 9c3b fbe7 c53b 8b5f eeba 6b3d ceb9
000002a0: c707 ddba 1729 853b 175b 7fbb d290 95bb
000002b0: aad5 48bc 7d5f 083b d7bc b8bb 92f7 d2bb
000002c0: 2d32 4bbc 84d1 86bc 22f9 3f3c 3ea3 d13c
000002d0: f307 1dbc 8bfd 943a 9819 083c 6fb6 e5bb
000002e0: 009e 4a3c 2961 8abc 4416 52bc 010b d8bb
000002f0: ef52 743c 794c 87bc cecc d5bb 3d0e 1bbc
00000300: 76e8 6abc 96fa 58bc 4d2a 623c 636e c93c
00000310: 5c4b f43b e05e 9ebb 5289 d1bc de8f 943c
00000320: b9ec 43bc 3b1c 523c fb86 e3bc 7969 383c
00000330: f5c2 563c 8af4 32bc 847e cb3b b11a 453c
00000340: 3666 7a3c 3a30 44bb 9c6d 863c c5e8 dfbb
00000350: 73b3 2dbb 3727 0a3a b631 81bc 25df b7bb
00000360: e87f 753b 838e 01bc f01b 6ebc df28 a53c
00000370: 8ff7 6abc cff7 03b9 d88a 58bc a447 fd3b
00000380: 9a88 9cbb 6303 9d3c 219d 4fbc 8fec 32bc
00000390: 0699 273c 531c 213c 7f35 053c 695b 2fbc
000003a0: 5d2a e6bb 20fc 9dbb 4c8b 3c3c 5535 c0bc
000003b0: 3e09 ca3c 1db3 01bd 3e40 f0bc 42a7 87bc
000003c0: 17a6 deba 9bc2 1e3a 769c 783a fd5a 90ba
000003d0: 31e9 d8ba 305a 68bb 4dd5 573a b2ca 693b
000003e0: be11 4abb a82d 6339 b686 623b 1bc6 28b9
000003f0: 7a49 dc3a 2094 353b ecc2 963b 177d 27ba
0.0065774983 -0.013868845 -0.01582426 -0.018959725 -0.0010687067 0.018553661 -0.008189917 0.0019448856
0.0064559337 -0.00092112465 0.010340484 0.0043742773 0.0043003145 -0.030188521 -0.010505651 0.009019128
-0.005695175 0.01373206 0.013727585 -0.020351995 0.027176617 -0.014848173 -0.0051395223 0.008624854
0.011845441 -0.014900334 -0.021184452 -0.013045142 -0.019735307 -0.000492053 0.011904688 0.0032292164
-0.019466823 0.023259941 0.016990276 -0.020466458 -0.004824849 -0.02123668 0.0014061253 -0.019478353
0.009653006 -0.005148167 -0.010482349 0.023829633 0.01118839 -0.0016941202 0.0071437224 -0.022063956
0.012496577 -0.004566667 -0.0026999991 -0.010036975 -0.010339461 0.0060924985 0.0087603405 -0.0037782104
-0.017860567 -0.004236039 -0.014798075 0.004957162 -0.0062929564 0.016545346 0.0011293839 -0.013818104
0.00082176697 -0.013622054 0.0032242942 0.013142259 0.003568623 -0.0014446636 0.019721443 0.00086279184
-0.012626418 0.009361572 -0.003128067 0.012256568 0.005587069 0.016568376 0.0055577313 0.0068059484
0.011383959 -0.001959159 0.015365826 0.0010041214 0.020174885 -0.0095431805 -0.009657145 -0.0035750684
-0.010293777 0.006226471 -0.0060112667 -0.002362031 -0.0057773027 0.0031289556 -0.0066495417 0.0015074302
0.017320672 0.016120417 0.010020871 0.0023174693 0.0067347405 -0.014807199 -0.002473515 -0.018913079
-0.013790997 -0.004583592 -0.008097354 0.01383115 0.012495622 0.0067090504 0.0020325354 -0.0077028996
0.0016254046 0.011773676 -0.01787329 -0.0013573947 0.019079404 -0.0016755272 0.0067418055 -0.023018371
-0.0025638118 0.0068918727 -0.014061655 0.0045559388 0.016738608 -0.004687406 0.004451647 -0.0035749562
-0.0013145362 0.011391819 0.014946158 0.00082708296 0.012245315 -0.00915208 -0.0010182644 -0.008599146
0.0049167085 -0.0017501956 0.013440009 0.003458808 0.00727281 -0.011275504 0.01382487 -0.006824662
0.003966907 0.025534205 0.0040857745 0.010384558 0.007987673 0.0017530615 -0.01827324 0.018245185
-0.0092283515 0.0012878814 -0.0054478813 0.007300943 -0.01239746 0.006906082 7.253751e-05 0.0070042354
0.011274811 -0.0035426696 -0.0006476125 -0.005677 0.0047834534 0.006039617 -0.0018186433 -0.00039337142
-0.001686328 0.004063736 -0.0038964206 -0.004564383 -0.012257973 0.0020808869 -0.005637746 -0.006438204
-0.0124021 -0.016457327 0.011717113 0.025590535 -0.009584415 0.0011367066 0.008306883 -0.007010273
0.012366772 -0.016892033 -0.012822691 -0.0065931086 0.014912351 -0.016515957 -0.0065246588 -0.009463844
-0.01433765 -0.013243338 0.013804031 0.02458877 0.0074552726 -0.0048330873 -0.025578175 0.018135007
-0.011958295 0.0128241135 -0.027774325 0.011255615 0.013108005 -0.0109225605 0.00621015 0.0120302895
0.015283158 -0.0029935972 0.016409688 -0.006833168 -0.0026504665 0.00052701257 -0.015770774 -0.0056113177
0.0037460271 -0.007907513 -0.014533028 0.02016109 -0.014341249 -0.0001258545 -0.013216697 0.0077294875
-0.0047770264 0.019166654 -0.01267174 -0.010920658 0.010229355 0.009833413 0.00813043 -0.010702946
-0.007024093 -0.0048213154 0.01150782 -0.02346293 0.02466261 -0.031664956 -0.029327508 -0.016559247
-0.0016986754 0.000605622 0.0009483764 -0.0011013445 -0.0016548989 -0.0035454147 0.00082333834 0.0035673794
-0.003083333 0.00021665415 0.0034565157 -0.00016095529 0.0016806566 0.0027706698 0.004600873 -0.0006389184

layers2.2.weight f4 [1, 1440]
00000000: b64a b0bb ff83 72bc bb1b 86bc c6c5 403c
00000010: 0e70 093c 35b6 3f3c 6d3b 96bc 0366 a9ba
00000020: cbd7 4fbc d03f 873c 42a8 43bc 60b3 86bb
00000030: 1f45 12bc b027 153c c5d2 48ba 7398 cebc
00000040: 8439 7f3c ce21 5f3c de96 21bb eee1 893b
00000050: c370 b8bc 4903 04bc 2a00 9abb 7638 363c
00000060: 392d 903c a61a 2cbc 3f03 09bb e5c1 eabc
00000070: d678 81bc 23c5 87bc 1b53 cdbc 72ec 84bb
00000080: 673b d0bc 0239 ff3b 858c 8a3c dc79 443c
00000090: ddbf 04bc f07a 513c 1607 c1bb 5cf1 33ba
000000a0: ac83 84bc 74e8 94bc 9b49 973c a74e b53b
000000b0: 37c8 043b 75b9 ac3b 2885 44bc 2f5e 5f3c
000000c0: cbc0 42ba 44c7 49bc 99bb baba 86fb 8cbc
000000d0: 1482 42bb 15df 67bc e54d 953c 0842 9abc
000000e0: 0883 c23b d57c 583c b796 7e3c 0a95 113c
000000f0: af9d 813c 880a 8bbc 6656 dbbc 66f9 5d3c
00000100: 436e ef3b d99c 5cbc e33d ef3a 52e8 553c
00000110: bb8b c8bb fad2 00bc 59c7 3e3c e9d0 55bc
00000120: 6bbc 7d3b bd9c 1a3b 4196 abba d4ac 803a
00000130: 195d 1b3c 449d 47bc f9fc 453c 16db 823c
00000140: 22e6 20bb b70e a7bb 74a9 28bc de8d f5b7
00000150: fed4 6e3a e5cf b23b 7814 68bb 86b9 d6bb
00000160: 1ef4 763c 011d 5bbb 2eb6 75bb 999e 08bb
00000170: b819 b53a f830 d0ba d157 0bbc 9b5f c3bb
00000180: 99a6 49bb 46a8 0cbc ac3a d53a 3b4d 093b
00000190: d808 113c 40cb fe39 236d 0e3c ffd6 003c
000001a0: 2576 193c 7536 bb3b ceef 763c dbfc 133c
000001b0: 2e43 de3b 0e15 02bb 9b15 813c cd20 c63a
000001c0: e0d1 133c 7d5b 373c d7ba 38bb 3469 4dbc
000001d0: 056c 31bc 1a4b 87bc 7f3c 013c af38 debb
000001e0: f9b5 4e3b f256 603b 9d24 5b3c f786 85bb
000001f0: 5952 9a3c fbcf ee3b 1036 c8bb 2422 323b
00000200: 1d76 69ba abfc 71bc 7008 63ba ebbf eb39
00000210: 08fd 13bb bb8d 2abb e039 55bc e2ac 96bb
00000220: 0209 a2bc 3235 6fba dcc5 223c 5fd2 993c
00000230: b001 84bc 4b29 7e3c 874c be3c 12dd 85ba
00000240: 2e20 f3bb 55d5 46bc 4e16 e53b 4cdd 08bb
00000250: 07cb f1ba 3752 a73c 1249 81bc 7c3a 9cbb
00000260: f4a7 323c 07d3 833b c098 d3b9 5ccc 243c
00000270: 5eaa 28b9 fd7b a73b 1e61 823c b4e8 363a
00000280: 9e76 b4ba f897 e13b 04de 893a fbf2 cdba
00000290: 837d ea3b 07f8 ac3c 2b54 c1bc 8281 8d3a
000002a0: 4e64 463c deff 3c3c cf56 92bb 8f6b fcbb
000002b0: 2c03 13bb 2bbe 8e3c 2f16 7e3b 4e79 65bc
000002c0: 7dc1 89bc 2627 de3b a195 533c b593 4bbb
000002d0: 3f34 dcbc ba95 e9bb 7fa4 91bc 58b7 073c
000002e0: 5e53 71bc 0bb9 79bc ac98 54bc 6e89 5dbb
000002f0: 2b5d 9ebc a8f2 46bc 70e2 c8bb eb8a df3b
00000300: 5391 3e3c c76c 88bc 280f 673c 1936 5dbc
00000310: b1b4 2abc 34cc 1b3c 58cb 1bba 9f03 ccba
00000320: dc88 af3c a749 873a 6c6b dbba cbcb 273c
00000330: 834e 81bc 7f42 b4bc 7551 6f3c 66b0 0b3c
00000340: 05b1 443c 58b6 4dbc a01d c1bc 3aab 3fbc
00000350: 1677 853b 11fe 7f3c 1200 d23b 10de 39bc
00000360: 9d96 3fbc c63d 183b 1c18 4a3c 7160 adba
00000370: 25cc 8cbc c58e 38bc 3765 373c 161b 883c
00000380: c204 f73b 7c48 1f3c 3b02 a63c 53a1 b6bb
00000390: b386 a13c 8398 adbc 9440 843c 9c93 8a3c
000003a0: 211d c3bc aec3 7ebc 8d84 6dbc 6d7a 273c
000003b0: 09a3 dbba d916 1a3c 418d 06bc a2e5 83bc
000003c0: 4047 ed39 5889 393b 2eca 24bb b3e2 013b
000003d0: 8145 6abb 9fca 863b bf43 52b9 e7da 03bb
000003e0: 40d8 a0bb 89f9 473b 59e2 7c3a ee91 f039
000003f0: 5bea e73a 778c a3ba fe80 0e3a 5c32 db39
-0.00538 -0.014801978 -0.016370645 0.011765903 0.008388532 0.011701156 -0.018338883 -0.0012924079
-0.012685726 0.01650992 -0.011941971 -0.0041107386 -0.008927613 0.0091037005 -0.00076608016 -0.025219178
0.015577678 0.0136188995 -0.0024656574 0.004207841 -0.022514706 -0.008057424 -0.0046997266 0.01112186
0.017599689 -0.0105044 -0.0020906476 -0.02865691 -0.01580469 -0.016573494 -0.025064042 -0.004056507
-0.02541895 0.0077887783 0.016912708 0.011991944 -0.008102384 0.012785658 -0.0058907373 -0.00068642735
-0.016176067 -0.018177249 0.018467715 0.0055330577 0.002026094 0.0052711316 -0.011994638 0.013633295
-0.0007429241 -0.012315575 -0.0014246582 -0.01720978 -0.0029679583 -0.014152308 0.01822562 -0.018830314
0.0059360303 0.013213356 0.015538863 0.008885631 0.01582226 -0.016972795 -0.026774596 0.013548231
0.0073068454 -0.01346513 0.0018252697 0.013055878 -0.006120173 -0.007862801 0.011644208 -0.013050296
0.0038717042 0.0023591958 -0.0013091044 0.0009817132 0.009482645 -0.012183491 0.012084239 0.015973609
-0.0024551232 -0.0050981897 -0.010294307 -2.9272338e-05 0.0009110718 0.005456912 -0.003541259 -0.006552878
0.0150728505 -0.0033434036 -0.003749262 -0.0020846485 0.0013816869 -0.0015883734 -0.008504824 -0.005962325
-0.0030769466 -0.008585041 0.0016268096 0.0020950574 0.008852206 0.00048598088 0.008693012 0.007863759
0.009366547 0.005713279 0.015071822 0.009032453 0.006782911 -0.0019848975 0.015757373 0.0015115977
0.009022206 0.011191246 -0.0028187537 -0.012537289 -0.0108289765 -0.016515303 0.007887959 -0.0067816596
0.003154157 0.003423151 0.0133754285 -0.004074927 0.018838095 0.007287977 -0.0061099604 0.0027180994
-0.0008905845 -0.014769713 -0.000866062 0.00044965683 -0.0022581238 -0.002602442 -0.013014287 -0.004598246
-0.019779686 -0.0009125053 0.009934869 0.01877707 -0.016114086 0.015512775 0.02322985 -0.0010212979
-0.0074196076 -0.012135823 0.0069911843 -0.0020883856 -0.0018447348 0.020424945 -0.015781913 -0.004767714
0.010904301 0.004022959 -0.00040358864 0.010058489 -0.00016085195 0.005111216 0.01591545 0.00069774245
-0.0013768261 0.006884571 0.0010518436 -0.0015712673 0.0071560754 0.021114362 -0.023599705 0.0010796043
0.012108875 0.011535613 -0.004465915 -0.0077032517 -0.002243231 0.017424664 0.0038770547 -0.014005972
-0.016815895 0.006779569 0.012914092 -0.0031063382 -0.026880382 -0.0071284445 -0.017778633 0.008283459
-0.014729349 -0.015241872 -0.012975853 -0.0033803838 -0.019331535 -0.012142815 -0.006130509 0.0068219802
0.011631328 -0.016653432 0.014102735 -0.013501667 -0.010419057 0.009509135 -0.00059430813 -0.0015565044
0.021427564 0.0010321633 -0.0016740388 0.010241459 -0.015784508 -0.022004364 0.014606823 0.008525943
0.012005095 -0.012555681 -0.023573697 -0.011698538 0.004073034 0.015624539 0.0064087 -0.011344448
-0.011693624 0.002323018 0.01233485 -0.0013227594 -0.017187187 -0.011264508 0.011193565 0.016614478
0.007538409 0.009721871 0.020264735 -0.0055734306 0.01971755 -0.021190887 0.016144074 0.016916089
-0.0238176 -0.015549583 -0.014496935 0.01022206 -0.0016756962 0.009404861 -0.0082123885 -0.016100708
0.00045257248 0.0028310623 -0.0025144923 0.001981896 -0.0035746994 0.00411351 -0.00020052398 -0.002011949
-0.0049085915 0.0030513725 0.00096467655 0.00045885093 0.0017693745 -0.0012477775 0.00054360915 0.00041808456
